{
    "train_loss": [
        … "train_accuracy": [
        … "test_loss": [
        … "test_accuracy": [
        … "path_norm": [
        … "model": "CifarInception(\n  (input_net): Sequential(\n    (0): Conv2d(3, 32, kernel_size=(3, 3), stride=(1, 1), padding=(1, 1))\n    (1): BatchNorm2d(32, eps=1e-05, momentum=0.1, affine=True, track_running_stats=True)\n    (2): ReLU()\n  )\n  (inception_blocks): Sequential(\n    (0): InceptionBlock(\n      (conv_1x1): Sequential(\n        (0): Conv2d(32, 8, kernel_size=(1, 1), stride=(1, 1))\n        (1): BatchNorm2d(8, eps=1e-05, momentum=0.1, affine=True, track_running_stats=True)\n        (2): ReLU()\n      )\n      (conv_3x3): Sequential(\n        (0): Conv2d(32, 16, kernel_size=(1, 1), stride=(1, 1))\n        (1): BatchNorm2d(16, eps=1e-05, momentum=0.1, affine=True, track_running_stats=True)\n        (2): ReLU()\n        (3): Conv2d(16, 16, kernel_size=(3, 3), stride=(1, 1), padding=(1, 1))\n        (4): BatchNorm2d(16, eps=1e-05, momentum=0.1, affine=True, track_running_stats=True)\n        (5): ReLU()\n      )\n      (conv_5x5): Sequential(\n        (0): Conv2d(32, 8, kernel_size=(1, 1), stride=(1, 1))\n        (1): BatchNorm2d(8, eps=1e-05, momentum=0.1, affine=True, track_running_stats=True)\n        (2): ReLU()\n        (3): Conv2d(8, 4, kernel_size=(5, 5), stride=(1, 1), padding=(2, 2))\n        (4): BatchNorm2d(4, eps=1e-05, momentum=0.1, affine=True, track_running_stats=True)\n        (5): ReLU()\n      )\n      (max_pool): Sequential(\n        (0): MaxPool2d(kernel_size=3, stride=1, padding=1, dilation=1, ceil_mode=False)\n        (1): Conv2d(32, 4, kernel_size=(1, 1), stride=(1, 1))\n        (2): BatchNorm2d(4, eps=1e-05, momentum=0.1, affine=True, track_running_stats=True)\n        (3): ReLU()\n      )\n    )\n    (1): InceptionBlock(\n      (conv_1x1): Sequential(\n        (0): Conv2d(32, 12, kernel_size=(1, 1), stride=(1, 1))\n        (1): BatchNorm2d(12, eps=1e-05, momentum=0.1, affine=True, track_running_stats=True)\n        (2): ReLU()\n      )\n      (conv_3x3): Sequential(\n        (0): Conv2d(32, 16, kernel_size=(1, 1), stride=(1, 1))\n        (1): BatchNorm2d(16, eps=1e-05, momentum=0.1, affine=True, track_running_stats=True)\n        (2): ReLU()\n        (3): Conv2d(16, 24, kernel_size=(3, 3), stride=(1, 1), padding=(1, 1))\n        (4): BatchNorm2d(24, eps=1e-05, momentum=0.1, affine=True, track_running_stats=True)\n        (5): ReLU()\n      )\n      (conv_5x5): Sequential(\n        (0): Conv2d(32, 8, kernel_size=(1, 1), stride=(1, 1))\n        (1): BatchNorm2d(8, eps=1e-05, momentum=0.1, affine=True, track_running_stats=True)\n        (2): ReLU()\n        (3): Conv2d(8, 6, kernel_size=(5, 5), stride=(1, 1), padding=(2, 2))\n        (4): BatchNorm2d(6, eps=1e-05, momentum=0.1, affine=True, track_running_stats=True)\n        (5): ReLU()\n      )\n      (max_pool): Sequential(\n        (0): MaxPool2d(kernel_size=3, stride=1, padding=1, dilation=1, ceil_mode=False)\n        (1): Conv2d(32, 6, kernel_size=(1, 1), stride=(1, 1))\n        (2): BatchNorm2d(6, eps=1e-05, momentum=0.1, affine=True, track_running_stats=True)\n        (3): ReLU()\n      )\n    )\n    (2): MaxPool2d(kernel_size=3, stride=2, padding=1, dilation=1, ceil_mode=False)\n    (3): InceptionBlock(\n      (conv_1x1): Sequential(\n        (0): Conv2d(48, 12, kernel_size=(1, 1), stride=(1, 1))\n        (1): BatchNorm2d(12, eps=1e-05, momentum=0.1, affine=True, track_running_stats=True)\n        (2): ReLU()\n      )\n      (conv_3x3): Sequential(\n        (0): Conv2d(48, 16, kernel_size=(1, 1), stride=(1, 1))\n        (1): BatchNorm2d(16, eps=1e-05, momentum=0.1, affine=True, track_running_stats=True)\n        (2): ReLU()\n        (3): Conv2d(16, 24, kernel_size=(3, 3), stride=(1, 1), padding=(1, 1))\n        (4): BatchNorm2d(24, eps=1e-05, momentum=0.1, affine=True, track_running_stats=True)\n        (5): ReLU()\n      )\n      (conv_5x5): Sequential(\n        (0): Conv2d(48, 8, kernel_size=(1, 1), stride=(1, 1))\n        (1): BatchNorm2d(8, eps=1e-05, momentum=0.1, affine=True, track_running_stats=True)\n        (2): ReLU()\n        (3): Conv2d(8, 6, kernel_size=(5, 5), stride=(1, 1), padding=(2, 2))\n        (4): BatchNorm2d(6, eps=1e-05, momentum=0.1, affine=True, track_running_stats=True)\n        (5): ReLU()\n      )\n      (max_pool): Sequential(\n        (0): MaxPool2d(kernel_size=3, stride=1, padding=1, dilation=1, ceil_mode=False)\n        (1): Conv2d(48, 6, kernel_size=(1, 1), stride=(1, 1))\n        (2): BatchNorm2d(6, eps=1e-05, momentum=0.1, affine=True, track_running_stats=True)\n        (3): ReLU()\n      )\n    )\n    (4): InceptionBlock(\n      (conv_1x1): Sequential(\n        (0): Conv2d(48, 16, kernel_size=(1, 1), stride=(1, 1))\n        (1): BatchNorm2d(16, eps=1e-05, momentum=0.1, affine=True, track_running_stats=True)\n        (2): ReLU()\n      )\n      (conv_3x3): Sequential(\n        (0): Conv2d(48, 16, kernel_size=(1, 1), stride=(1, 1))\n        (1): BatchNorm2d(16, eps=1e-05, momentum=0.1, affine=True, track_running_stats=True)\n        (2): ReLU()\n        (3): Conv2d(16, 24, kernel_size=(3, 3), stride=(1, 1), padding=(1, 1))\n        (4): BatchNorm2d(24, eps=1e-05, momentum=0.1, affine=True, track_running_stats=True)\n        (5): ReLU()\n      )\n      (conv_5x5): Sequential(\n        (0): Conv2d(48, 8, kernel_size=(1, 1), stride=(1, 1))\n        (1): BatchNorm2d(8, eps=1e-05, momentum=0.1, affine=True, track_running_stats=True)\n        (2): ReLU()\n        (3): Conv2d(8, 8, kernel_size=(5, 5), stride=(1, 1), padding=(2, 2))\n        (4): BatchNorm2d(8, eps=1e-05, momentum=0.1, affine=True, track_running_stats=True)\n        (5): ReLU()\n      )\n      (max_pool): Sequential(\n        (0): MaxPool2d(kernel_size=3, stride=1, padding=1, dilation=1, ceil_mode=False)\n        (1): Conv2d(48, 8, kernel_size=(1, 1), stride=(1, 1))\n        (2): BatchNorm2d(8, eps=1e-05, momentum=0.1, affine=True, track_running_stats=True)\n        (3): ReLU()\n      )\n    )\n    (5): MaxPool2d(kernel_size=3, stride=2, padding=1, dilation=1, ceil_mode=False)\n    (6): InceptionBlock(\n      (conv_1x1): Sequential(\n        (0): Conv2d(56, 16, kernel_size=(1, 1), stride=(1, 1))\n        (1): BatchNorm2d(16, eps=1e-05, momentum=0.1, affine=True, track_running_stats=True)\n        (2): ReLU()\n      )\n      (conv_3x3): Sequential(\n        (0): Conv2d(56, 24, kernel_size=(1, 1), stride=(1, 1))\n        (1): BatchNorm2d(24, eps=1e-05, momentum=0.1, affine=True, track_running_stats=True)\n        (2): ReLU()\n        (3): Conv2d(24, 32, kernel_size=(3, 3), stride=(1, 1), padding=(1, 1))\n        (4): BatchNorm2d(32, eps=1e-05, momentum=0.1, affine=True, track_running_stats=True)\n        (5): ReLU()\n      )\n      (conv_5x5): Sequential(\n        (0): Conv2d(56, 8, kernel_size=(1, 1), stride=(1, 1))\n        (1): BatchNorm2d(8, eps=1e-05, momentum=0.1, affine=True, track_running_stats=True)\n        (2): ReLU()\n        (3): Conv2d(8, 8, kernel_size=(5, 5), stride=(1, 1), padding=(2, 2))\n        (4): BatchNorm2d(8, eps=1e-05, momentum=0.1, affine=True, track_running_stats=True)\n        (5): ReLU()\n      )\n      (max_pool): Sequential(\n        (0): MaxPool2d(kernel_size=3, stride=1, padding=1, dilation=1, ceil_mode=False)\n        (1): Conv2d(56, 8, kernel_size=(1, 1), stride=(1, 1))\n        (2): BatchNorm2d(8, eps=1e-05, momentum=0.1, affine=True, track_running_stats=True)\n        (3): ReLU()\n      )\n    )\n  )\n  (output_net): Sequential(\n    (0): AdaptiveAvgPool2d(output_size=(1, 1))\n    (1): Flatten(start_dim=1, end_dim=-1)\n    (2): Linear(in_features=64, out_features=10, bias=True)\n  )\n)"
}